server/chat-model/data.pth (torch, 8933 bytes, 6 tensors)

l1.weight f4 [20, 46]
000000 64 8a 91 3e db be 92 3d 1e f0 00 be b4 d3 6e bd
       0.28425896 0.07165309 -0.12591597 -0.058307365
000010 f2 37 cf bd 44 c3 30 3e a5 8e 2e 3e 19 66 a9 3e
       -0.101180926 0.17261988 0.17046602 0.33085707
000020 30 95 ee bd 44 7c 0f be 6d f7 35 3e 4a 91 15 be
       -0.11649549 -0.14012247 0.17770167 -0.14606205
000030 b5 21 c3 bd c2 66 10 be b4 e8 02 be b0 39 42 3e
       -0.095279135 -0.14101699 -0.12784082 0.18967319
000040 ab f2 33 3e 72 af a1 3e 29 6b b7 bd d0 63 99 bd
       0.17573039 0.31579167 -0.08955986 -0.07489741
000050 0b d9 1d 3e 30 c6 5d bd a6 3b 61 bd ce 3d 24 3e
       0.15414827 -0.054144084 -0.054988526 0.16039202
000060 55 b6 70 bd 50 f8 13 be 32 f5 28 3e 57 e5 f9 bd
       -0.058767635 -0.14450192 0.16499785 -0.12201946
000070 40 06 89 3d 7b bf c7 bd c8 08 e6 bd 5d 9a f4 bd
       0.06690645 -0.09753319 -0.11232144 -0.11943505
000080 86 d0 0b be 12 e4 e6 bd 94 1c 3e 3e 26 bd d3 bd
       -0.13653764 -0.1127397 0.18565589 -0.103388116
000090 7f 0a 05 be 6f 6a ff bd 19 3c 0b be c4 f3 28 3e
       -0.12992285 -0.124714725 -0.13597144 0.16499239
0000a0 20 25 e1 bd 04 eb c5 bd f5 87 cc 3e 8e 80 68 3e
       -0.10993409 -0.09663966 0.39947477 0.2270529
0000b0 23 85 c7 bd c6 c9 6f 3e de 2a 34 3e 51 45 4a 3d
       -0.09742191 0.23416814 0.17594478 0.04938251
0000c0 ce ef 78 be d3 c3 94 bd 09 3e 71 be f7 5a 82 3e
       -0.24310228 -0.07263913 -0.23558821 0.25460026
0000d0 95 81 96 3e 2d 3a aa 3e b5 c4 75 be 67 eb 53 3e
       0.29395738 0.3324751 -0.24000819 0.20695268
0000e0 cd e0 9e 3e 33 4c 4b 3e 2e 3e 7f be 7b e7 59 3e
       0.31030884 0.19853286 -0.24926063 0.21279709
0000f0 1e 4d 75 be 1f ce 87 3e dd 20 8b 3e 0e a7 aa 3e
       -0.23955199 0.26524445 0.2717351 0.33330578
000100 99 75 7f be 27 f2 86 3a 6e 39 05 3e 3f 9f 97 3b
       -0.24947204 0.0010295556 0.13010189 0.004627138
000110 c1 9f 0e bd 04 df a1 3e 2f 43 fd bc 0f 93 5c 3e
       -0.034820322 0.3161546 -0.030915825 0.21540473
000120 05 e7 30 3e b0 20 76 be 3d 82 20 3d e5 fb 76 be
       0.17275627 -0.24035907 0.039186705 -0.24119528
000130 65 d7 7a 3e d8 a9 51 3e 1b 53 76 be 36 1c 71 be
       0.24496229 0.20474946 -0.2405514 -0.23545918
000140 9b 35 80 3e c3 4b 81 be 3e 97 5c 3e fe 72 76 be
       0.25040898 -0.25253114 0.2154207 -0.24067304
000150 b8 3c 82 be 51 01 38 3e 7b 73 7c be ac 1a 5a 3e
       -0.2543695 0.17969252 -0.24653427 0.21299237
000160 8a 90 71 3e 94 1f 95 3d 44 0d 80 be 4a f4 7d 3e
       0.23590294 0.07281414 -0.2501012 0.2480022
000170 54 7d 3f 3e 55 2d f3 3d 40 48 4e be f4 02 db bd
       0.18700153 0.11873881 -0.20144749 -0.10693923
000180 90 d3 5c 3e f9 d5 55 3e e3 88 5b 3e 0f 69 94 be
       0.2156508 0.20882405 0.21438937 -0.28986403
000190 de fa 41 3e f6 66 66 bd cf 9c 49 3e 52 0c 92 bc
       0.18943354 -0.056250535 0.19688724 -0.01782814
0001a0 fa 91 38 be 95 1e 07 bd ce bb 6f 3e 5e 3f 6b 3e
       -0.18024436 -0.03298815 0.23411486 0.22973391
0001b0 a8 74 6f 3e 3d c1 7a be 8e 57 33 be 2d 8b 4d be
       0.23384345 -0.24487777 -0.17513868 -0.20072623
0001c0 e2 1a 6a 3e 66 08 60 be 11 79 6c be c9 ae 5f 3e
       0.22861817 -0.21878204 -0.23093058 0.21844019
0001d0 85 13 c0 bd 89 6b b0 bc 7c 2c 0c be 95 a9 4e 3e
       -0.09378723 -0.021535652 -0.13688844 0.20181878
0001e0 60 d5 00 3e da 7c 37 be 07 22 8b bc cd 84 1d bd
       0.12581396 -0.17918721 -0.016983999 -0.038456727
0001f0 92 2d 46 3e 18 f5 62 3e e4 e3 5c 3e 51 db 53 be
       0.19353321 0.22163808 0.21571308 -0.20689131
000200 e9 08 fc bc 06 47 4f 3e 9e c1 2c be e4 e5 3b be
       -0.030765967 0.20241937 -0.16870734 -0.18349415
000210 e5 0e 48 3e f0 f3 c3 bb e5 09 ed 3e c7 ee 65 3e
       0.19536932 -0.0059800074 0.4629661 0.22454368
000220 dc 61 45 be a2 38 88 3d 65 ae 2f be fa ec 97 bc
       -0.19275612 0.06651427 -0.1715637 -0.018545616
000230 b2 cf 45 3e 28 d5 ad 3c 0f 8d c2 3c ad 40 80 3e
       0.1931751 0.021219805 0.023748903 0.25049344
000240 0e c2 60 3e 3f f4 a0 3e 4e 47 e6 3b f4 14 33 be
       0.21949026 0.31436345 0.007027543 -0.17488462
000250 13 9b 12 3e ac b1 3b be 3b c0 68 3e a1 96 2c be
       0.14316969 -0.18329495 0.2272958 -0.16854335
000260 00 3e b6 3b b8 0a 6e 3e 35 e7 37 3e ae be a8 3e
       0.00556159 0.23246276 0.17959292 0.32957977
000270 2b 17 54 3e bb 15 0d bd 85 c9 d1 bd 79 e0 48 bd
       0.20711963 -0.034444552 -0.10243515 -0.0490422
000280 59 38 98 bd b0 0c 73 3e 27 20 b0 3c 25 63 3a be
       -0.074326225 0.23735309 0.021499706 -0.18201883
000290 3c 05 70 3e 5c da aa 3c 08 ca 97 bc b0 00 59 3e
       0.23439497 0.020856075 -0.018528953 0.21191669
0002a0 58 62 3d be 35 97 30 be a7 3e 37 3c 5f 78 42 3c
       -0.18494546 -0.17245181 0.011184371 0.011869519
0002b0 78 26 33 3e b6 41 58 3e 65 04 38 be cf b1 2a 3c
       0.17495143 0.21118817 -0.17970426 0.010418369
0002c0 0e ff 51 3e 44 3e 80 3e 06 af f1 3c 05 f9 29 be
       0.20507452 0.25047505 0.029502403 -0.165989
0002d0 1f 8c 89 be 40 30 12 be 8e 2c 47 3e c9 6e 75 3d
       -0.26864716 -0.14276218 0.1945059 0.059920106
0002e0 a5 df ff bd e9 dc 02 00 a3 6c 93 3e 64 48 3f 3e
       -0.12493829 2.62919e-40 0.2879382 0.18679959
0002f0 e7 70 54 3e 88 4b 32 be 31 67 79 be a6 07 9f be
       0.20746194 -0.17411625 -0.2435577 -0.31060523
000300 12 b6 77 3e 7c f0 94 bd 37 f6 84 be 1a 62 db bd
       0.24190548 -0.07272431 -0.25969097 -0.10712071
000310 a1 f4 b0 3e b5 b6 73 bd ba 02 5f 3e 83 cd 66 be
       0.34561637 -0.059500415 0.21778384 -0.22539334
000320 99 a8 88 be 94 75 a2 be ea 2e b8 3e ab f6 68 3e
       -0.2669113 -0.3173033 0.35973293 0.22750346
000330 b5 55 eb bd 5d 6d 76 3e 14 15 56 3e d3 6c 53 be
       -0.11490957 0.24065156 0.20906478 -0.20646982
000340 2c 0c 32 3e 00 cb 32 bd bb 01 bc bd 6d c8 6d 3e
       0.17387456 -0.043650627 -0.091800176 0.23220988
000350 a9 b0 02 80 6f d1 a5 3e 3f d5 5c bd ba ae bd bd
       -2.47045e-40 0.32386348 -0.053914305 -0.09261842
000360 c4 9d 4a 3e 94 e5 61 3e de 45 84 be 97 13 9e 3e
       0.19786745 0.22060233 -0.25834554 0.3087432
000370 a2 52 7b bd a6 61 69 3e 0e d4 80 3e 2a 8f e4 bd
       -0.0613581 0.22791156 0.25161785 -0.11160119
000380 e5 f3 79 3e 9c b9 80 bd 36 4a b6 be a8 15 f6 bd
       0.24409445 -0.06285402 -0.35603493 -0.12015849
000390 91 37 b4 3e 43 8c 59 bb f0 85 7a bd 67 70 03 00
       0.35198644 -0.0033195175 -0.06116289 3.15829e-40
0003a0 2f e6 20 be 44 8e 2b 3e 9c cc 07 be d7 76 12 3e
       -0.15712808 0.16753489 -0.13261646 0.14303146
0003b0 ee 03 0a 3e fd c6 2a be 66 32 06 be fa a1 13 3e
       0.13478062 -0.1667747 -0.13105163 0.14417258
0003c0 35 ab ff 3d d2 e4 26 3e c8 ae 18 be a7 15 0a 3e
       0.12483827 0.16298226 -0.14910424 0.13484822
0003d0 f9 9c 0a be 37 6c 17 3e be 32 0d 3e 5b 83 28 be
       -0.13536443 0.14787374 0.13788888 -0.16456358
0003e0 3e 6c 1c be d2 08 7d 3e b6 86 7a bd 01 53 8e 3e
       -0.15275666 0.24710396 -0.061163627 0.27797702
0003f0 ad b5 6a 3e 24 78 18 3e 10 37 27 3e 66 7f 00 3e
       0.22920866 0.1488958 0.16329598 0.12548599

l1.bias f4 [20]
000000 98 f9 70 3e 52 6e 88 3e 33 d4 c3 3e 3e 70 14 3f
       0.23532712 0.26646668 0.38247833 0.5798377
000010 ac 16 b8 3e d3 61 39 3e 37 68 71 3e 6d 6d 68 3e
       0.35954797 0.18103723 0.23574911 0.22697993
000020 d0 20 b3 3e 05 b3 70 3e 5e 7e 7b 3e 31 7e 70 3e
       0.3498597 0.2350579 0.24559924 0.23485638
000030 74 8f 98 3e 95 be 8c 3e 68 5e 6a 3e 79 91 89 3e
       0.29796946 0.27489153 0.22887576 0.268688
000040 02 16 8f 3e 2e 8f c1 3e 4f 6d a8 3e d6 84 5f 3e
       0.27946478 0.3780455 0.32895896 0.21828017

l2.weight f4 [20, 20]
000000 a7 23 53 be 52 00 11 be b4 43 39 3e e2 53 bc 3e
       -0.20619069 -0.14160278 0.18092233 0.36782748
000010 8d 10 25 3f 97 ee b6 3e 7b cd 0d 3f 4f b1 18 bc
       0.6447838 0.35728905 0.55391663 -0.009319617
000020 d3 ff b3 3e 29 52 58 3d d3 f9 92 3e 7e 44 d9 3e
       0.35156116 0.05281273 0.28706226 0.42435068
000030 ed 51 de be a7 4e 43 3f 86 2d 0b 3f c0 e4 04 3f
       -0.4342188 0.7629189 0.5436634 0.51911545
000040 72 73 f6 bd de 53 25 bd 59 35 f1 3e 17 48 82 3d
       -0.12033738 -0.040363185 0.47111014 0.06361406
000050 dc e0 00 00 66 23 49 00 fc 7a 9d 8a 31 00 05 00
       8.0664e-41 6.71669e-39 -1.5164812e-32 4.59246e-40
000060 f9 a9 03 00 ad 6e 05 80 f0 50 cc 05 44 78 33 9b
       3.36481e-40 -4.9888e-40 1.92138e-35 -1.4845393e-22
000070 3a 1d 00 80 2a 1d 70 a0 4f 5d 02 80 09 4f 90 17
       -1.0485e-41 -2.033844e-19 -2.17144e-40 9.325733e-25
000080 f5 64 01 80 de b1 06 9a 10 1b 03 80 96 a3 c4 81
       -1.28052e-40 -2.785423e-23 -2.85215e-40 -7.2233763e-38
000090 a8 3a 00 00 0a b4 01 80 63 e3 3f 8b 54 00 c5 00
       2.1042e-41 -1.56421e-40 -3.695633e-32 1.809171e-38
0000a0 73 b5 01 80 12 62 cd 1a 20 bb fb 02 b1 82 39 9e
       -1.56927e-40 8.4944454e-23 3.698854e-37 -9.820845e-21
0000b0 3d a9 05 80 da 7c 00 80 ee f8 02 00 0f 01 a6 19
       -5.19889e-40 -4.4788e-41 2.7297e-40 1.7164425e-23
0000c0 90 98 00 80 aa 68 05 80 e1 72 05 00 cf 2e 00 80
       -5.4729e-41 -4.96724e-40 5.00388e-40 -1.6792e-41
0000d0 a6 3e 00 80 bd 29 4e 21 bb c2 04 80 5c 0b 02 80
       -2.2474e-41 6.9850755e-19 -4.37198e-40 -1.87746e-40
0000e0 df 17 01 80 63 35 97 85 79 d0 8e 1c 67 9f 01 80
       -1.00399e-40 -1.4219583e-35 9.450661e-22 -1.49018e-40
0000f0 2e 07 cf 3d 60 5c d7 be b3 bd 1b be 74 d5 f6 3e
       0.10108791 -0.42062664 -0.15209083 0.48209727
000100 7c c6 2b 3f a9 0c c5 be 40 1e 05 3e f6 34 59 3b
       0.6709974 -0.3848622 0.1299982 0.003314314
000110 56 a5 9c be a5 7b 27 3f 0c 9b 0b 3f d3 de 32 3c
       -0.3059489 0.6542304 0.5453346 0.010917383
000120 7c 41 29 3f 01 9b a2 be 7a 0f 33 bf 4f 21 df be
       0.66115546 -0.31758884 -0.6994549 -0.435801
000130 c6 8c f2 3e 8e d6 92 3e 32 c6 1f bc 56 f4 b6 3e
       0.47373027 0.28679317 -0.009751843 0.3573329
000140 43 f1 f5 3e db ad b6 3e 0d 00 c8 3e 5b 89 39 3e
       0.4803563 0.35679516 0.3906254 0.18118803
000150 70 87 94 be 7d 88 f6 bd 0d 83 ed be 2f 30 6b 3e
       -0.2900958 -0.12037752 -0.46389046 0.229676
000160 4c e7 e8 bd c3 68 d3 3e 65 eb 62 bd af e2 e4 3d
       -0.113722414 0.41290864 -0.05540027 0.11176049
000170 8d 62 1c 3f b6 61 d8 be eb 04 56 be c4 e4 1f bd
       0.61087877 -0.42262048 -0.20900314 -0.039036527
000180 04 31 f9 3e 99 8b 48 3e e7 0f 8e be b6 a2 77 3d
       0.48670208 0.19584502 -0.27746508 0.060457908
000190 07 93 63 bd 2a 64 80 3e 34 e5 c0 3b 62 ad d6 bd
       -0.055560138 0.2507642 0.005886698 -0.10482289
0001a0 39 6d 54 3c f4 41 db 3e 68 27 91 3c e2 07 94 3e
       0.012965494 0.42823756 0.017718986 0.28912264
0001b0 87 b4 3e 3e 75 56 b1 bd c3 cc ae be b8 ca 9f 3e
       0.18623553 -0.086590685 -0.34140596 0.3120935
0001c0 df 5e 1f bd 2d 47 86 3e 4c c1 fd 3e ee 25 02 3e
       -0.038908836 0.26226178 0.49561536 0.12709782
0001d0 2e 17 4b 3e d3 44 07 be 7a 73 ba bb 4d 35 d5 bd
       0.19833061 -0.13209848 -0.0056900354 -0.10410557
0001e0 86 d2 05 3f bc 07 e4 3e dd 04 80 3d 5b 2b c7 3e
       0.5227436 0.4453715 0.062509276 0.38900265
0001f0 e8 cf e1 be b7 58 d5 3d d3 7f ef be 80 2b 19 bf
       -0.44103932 0.10417312 -0.4677721 -0.59832
000200 2e 08 8d bb 79 8b 4e 3d 7a 3c e9 bd fa e2 f2 be
       -0.0043039536 0.05042598 -0.11388488 -0.47438794
000210 bd 5d 5b 3e ac a7 24 3e db a1 6c 3e 71 53 df 3d
       0.21422477 0.16079587 0.23108618 0.10904587
000220 9f 82 d5 be ab 4c bb 3e 93 f8 5c 3e ba e0 3f be
       -0.41701218 0.3658193 0.21579199 -0.1873807
000230 d5 cf 6c 3b 41 a8 9b 3e b2 93 9b 3e aa 74 a2 be
       0.003613462 0.30401805 0.3038612 -0.31729633
000240 df 90 e0 bd 1a 3f 98 3e f7 ef ae 3e 7b 48 3e 3f
       -0.10965132 0.29735643 0.34167454 0.74329346
000250 65 a5 ed 3e cf 15 44 be 24 45 a1 be b5 32 1d 3f
       0.4641525 -0.19148944 -0.31498063 0.614055
000260 0e 09 8b bd 27 dd c4 3c 0c d0 b2 3e 7a 39 a7 3e
       -0.067888364 0.024031235 0.34924352 0.3266104
000270 43 52 f8 3e f4 bd 94 be 28 96 ce bd d2 16 42 3e
       0.4850026 -0.29051173 -0.10087234 0.18954018
000280 b6 c7 3c bd 15 9a f1 bd 7f 9b c5 3e f5 82 88 3e
       -0.046088897 -0.11796967 0.38595197 0.26662412
000290 44 d1 c6 3e 7c 8c 8f 3e 30 92 1e bf 1e 27 a4 3d
       0.38831532 0.2803687 -0.61941814 0.080152735
0002a0 2f f8 dd 3e fd a6 01 bf 91 fd 91 3e 2c 5c cc be
       0.43353412 -0.5064543 0.28513768 -0.39914072
0002b0 0b 4e df 3e c3 79 93 bd 94 e3 b3 3e 25 31 da be
       0.4361423 -0.072009586 0.35134566 -0.4261562
0002c0 b3 65 10 3f 6b 4c 3d 3f a8 e8 76 be 3b 44 38 bf
       0.5640518 0.7394473 -0.24112189 -0.7197911
0002d0 e4 29 19 3f 6f 58 fc 3e 36 84 0f 3f bb eb d4 3e
       0.59829545 0.4928622 0.5606111 0.41586098
0002e0 59 ac 07 bf 7f 75 f5 bd a0 7e 1b bf 51 a5 36 be
       -0.52997357 -0.11985301 -0.6074009 -0.178365
0002f0 b9 3f 04 3f ee 2c c3 be cc 5f 5f 3e eb 6f 37 bf
       0.51659733 -0.38120216 0.21813887 -0.7165515
000300 87 c2 f1 3e 7b e1 55 be 31 d4 d0 bd bc 25 9f 3e
       0.47218725 -0.20886795 -0.10196722 0.31083477
000310 29 d0 49 be db fd 38 3f c3 c4 46 3c 56 62 27 be
       -0.19708313 0.7226235 0.012131873 -0.16346106
000320 fd 27 01 be 16 c5 a6 be 7c 1b 19 3f af a9 9b be
       -0.1261291 -0.3257224 0.5980756 -0.30402896
000330 97 c8 50 3e f4 7b 82 be 13 00 d3 3e bd 0d 1d 3f
       0.20389019 -0.25485194 0.41210994 0.6134909
000340 29 ce 0e 3f 22 61 a6 3b e9 8a d0 3e 8d 32 03 3e
       0.55783325 0.005077497 0.4073098 0.12812252
000350 e9 82 3b 3e cc b1 90 be c2 12 00 bf b9 35 94 3e
       0.18311657 -0.28260648 -0.5002862 0.28947237
000360 6a e6 e5 3e 96 1b ce 3c aa 2d 0e be 1e 52 39 3e
       0.44902354 0.025159638 -0.13884607 0.18097731
000370 5f 2a 3a 3e 09 88 df bd 2f 4a 1d 3f f3 08 2b be
       0.18180226 -0.109146185 0.6144132 -0.16702633
000380 5f 76 4c 3e d2 52 a5 3a 8b 8a e5 be 36 c8 c3 3e
       0.1996703 0.0012613183 -0.44832262 0.38238686
000390 ee 8c 25 3e 90 53 fa 3b e5 0f d6 3e 58 92 40 3e
       0.16167042 0.007639356 0.41809002 0.18805826
0003a0 23 fe 19 3e b8 ae 26 be fd 93 4a be d4 33 4c 3e
       0.15038352 -0.16277587 -0.19783016 0.19941646
0003b0 e4 7a d2 3e b1 b6 f8 3d 6a 27 f2 be ad 30 b2 be
       0.41109383 0.121442206 -0.47295696 -0.34802762
0003c0 67 bd bd 3e 24 5f 42 3f 1d ac 52 3e 2b 35 ac bd
       0.37058565 0.75926423 0.20573469 -0.084085785
0003d0 5f c2 c9 be 6a 66 f1 3e 51 61 51 be 1f 28 cc 3e
       -0.39406106 0.47148448 -0.2044728 0.3987436
0003e0 da 8f 26 3e 84 fa 8e 3d 51 ad 01 bf 49 1a f6 3e
       0.16265813 0.06981376 -0.50655085 0.4806693
0003f0 31 d8 64 3e f0 51 3e 3e f0 7c 4c 3f 3c 2b a3 3e
       0.22348095 0.18585944 0.7987814 0.31868923

l2.bias f4 [20]
000000 63 40 aa 3e 76 01 5d 9c 9c 82 47 ac 63 37 ba 3e
       0.33252248 -7.3124654e-22 -2.8352104e-12 0.36370382
000010 5b c8 a0 3d 84 7b c8 3d 4a 1c fd 3d 01 c4 47 3e
       0.07850715 0.09789184 0.12358911 0.19508363
000020 c1 df 8a 3e fd e2 59 3e c2 e4 2c 3e 13 52 af 3d
       0.27123836 0.21277995 0.16884139 0.08560576
000030 0a 23 02 3e da 6a b8 3e 97 01 58 3e cb 5b 0f 3e
       0.12708679 0.3601902 0.21094356 0.1399986
000040 c5 ff 82 3e cf e5 0d 3e 01 3f 19 a6 d3 41 14 3e
       0.25585762 0.13857196 -5.3167925e-16 0.14478235

l3.weight f4 [7, 20]
000000 09 6a 81 3e 63 7c 00 80 5f 6b 01 80 f4 f7 57 bf
       0.2527621 -4.4622e-41 -1.30353e-40 -0.8436272
000010 5c 9c fa bd 3d 10 95 3d e0 1c 12 3f e1 92 1f be
       -0.122368544 0.07278488 0.5707531 -0.15583374
000020 6e c8 ba 3e 41 82 31 3f 71 89 92 be cb 3e 95 3d
       0.3648104 0.69339377 -0.28620484 0.072873674
000030 2d 9b 90 3e 16 15 f0 3e 3a 53 92 3e 93 28 b9 be
       0.2824339 0.46891087 0.28579122 -0.36163768
000040 d6 1d 17 bf be 43 07 3e f5 a6 04 80 b5 0a b9 bc
       -0.590299 0.13209435 -4.27235e-40 -0.022588113
000050 d3 9e 67 bb 6b bf 01 00 19 d2 04 00 a2 bb 0d 3f
       -0.003534247 1.60503e-40 4.42711e-40 0.5536443
000060 fb 30 46 3e 05 81 8a be 8b aa ed be dd 5d ec 3d
       0.19354622 -0.2705156 -0.46419176 0.115413405
000070 80 c7 3a 3f 5e 22 db 3e 7f 32 24 3f 87 6d 0b 3f
       0.7296066 0.42799658 0.6413955 0.54464
000080 71 e0 c4 be c2 3f 8c 3e dd 44 aa be a0 d7 16 bf
       -0.38452485 0.27392393 -0.33255664 -0.5892277
000090 0e b8 d2 3d 25 f6 94 3e d0 ec 01 80 ab ab 74 bf
       0.10289012 0.29094043 -1.76788e-40 -0.95574445
0000a0 60 82 bd be 2f ed 04 00 09 50 01 00 2b dd d5 3e
       -0.3701353 4.52427e-40 1.20547e-40 0.417703
0000b0 21 3b b4 3e 8b b9 e8 be d7 43 cc 3e 19 9d 05 bf
       0.35201362 -0.45454058 0.39895508 -0.52192837
0000c0 12 be 40 bd ee 32 dd 3e 26 65 ce be 58 f4 0d bf
       -0.047056265 0.4320292 -0.40311545 -0.55450964
0000d0 25 c2 26 3e 9c e4 84 3d 6d f0 06 3e c7 6b b0 3e
       0.16284998 0.06488916 0.13177653 0.34457228
0000e0 49 83 52 3e 07 5c 69 3e aa ba a8 05 44 da 80 3e
       0.20557894 0.22789012 1.5867214e-35 0.25166523
0000f0 92 2a 54 3e f8 04 03 80 35 b1 01 80 57 57 52 3e
       0.20719364 -2.77289e-40 -1.55405e-40 0.2054113
000100 9c 34 1c 3e bc 3d a9 3e 62 25 3a be 60 d8 82 3e
       0.15254444 0.33054912 -0.18178323 0.25555706
000110 ac ab db 3e d2 8e 53 bf 81 96 06 be 65 3e 4c 3e
       0.42904413 -0.826398 -0.1314335 0.19945677
000120 29 07 f3 3e 05 8c 9e 3d 19 5b 34 bf 4a 55 ff 3e
       0.474664 0.0774155 -0.70451504 0.49869758
000130 e6 81 87 3e 92 7c 9e be db d4 00 80 66 30 49 3b
       0.26466292 -0.30954415 -7.6358e-41 0.0030699014
000140 50 69 c2 3e dc 53 00 80 f7 2f 1d 94 5c 6b 4e bf
       0.37970972 -3.0083e-41 -7.935934e-27 -0.8063257
000150 6b a5 30 bf 9d db c5 3e 5d 0b 1e bf 06 d5 26 3f
       -0.6900241 0.38644114 -0.6173609 0.651688
000160 3d 7a 0c bf 0b c5 c6 be 93 99 69 3e 7a 17 0d bf
       -0.5487402 -0.38822207 0.2281249 -0.5511395
000170 2a 48 b7 3e c5 26 ea 3e 00 e3 84 3e 89 2e 05 bf
       0.35797244 0.45732704 0.25954437 -0.5202413
000180 e8 1a 04 be e1 2f f2 be 87 91 5f 1b f0 65 15 3f
       -0.12900889 -0.47302154 1.849315e-22 0.5835867
000190 56 f9 0b 3f 33 00 01 80 7f 9c 02 80 15 ed 2d 3f
       0.5467733 -9.1907e-41 -2.39811e-40 0.67939883
0001a0 48 79 e7 be 4a b0 c4 be 37 7e 88 be a2 9b aa be
       -0.45209718 -0.38415748 -0.26658794 -0.33321863
0001b0 8d 89 f0 be a0 85 30 bf 0c 50 1f 3e 2a d2 8a be
       -0.46979943 -0.68953896 0.15557879 -0.27113467
0001c0 c3 29 68 bf 10 63 96 3e 79 19 d6 3e 98 2a af be
       -0.90688723 0.29372454 0.4181631 -0.34212184
0001d0 88 5f de 3e b2 ca b1 3e b8 46 04 00 b6 72 c2 3e
       0.4343226 0.34724957 3.92711e-40 0.37978142
0001e0 b5 89 8f be bc ea 95 05 67 73 02 80 c1 4b 78 bd
       -0.2803475 1.409812e-35 -2.2507e-40 -0.06061912
0001f0 a4 62 0f 3f 1a 9a 9c bc 29 b2 ab be 41 ff c5 3e
       0.5600989 -0.01911645 -0.33534363 0.38671306
000200 c0 ac 27 bf f4 3d 84 3d 05 d4 e4 3e 59 88 0e 3f
       -0.6549797 0.06457129 0.44693008 0.556768
000210 63 ff ca 3e c4 f2 40 bf 17 e2 2b 3e 13 63 8e 3e
       0.3964797 -0.7537043 0.16785465 0.27809963
000220 a3 03 8d bd a5 03 ea bd d9 f3 00 00 a8 4b c8 3e
       -0.06885459 -0.114264764 8.7476e-41 0.3912022

l3.bias f4 [7]
000000 9d 91 07 3d ea 47 29 3e 17 1a ab 3d 00 76 a1 3e
       0.033097852 0.1653134 0.083545856 0.3153534
000010 4b cf 15 3e f3 a0 96 3e 5c 60 79 3d
       0.14629857 0.2941967 0.06088291
